disease_model.tflite (tflite, 113884 bytes, 6 tensors)

arith.constant f4 [41, 64]
00000000: 544b ab3e 47a3 da3d 31e0 cabd 2dd7 07be
00000010: 7bf3 bebe 9614 3ebe 9216 24be bba7 33be
00000020: f55d 753e 5797 b63c 6762 6a3d 8042 04be
00000030: fd99 9a3e b8a0 f4be adfa b0be e949 26be
00000040: ad1f 5dbe 69a0 dcbe 5750 c9be b522 c2be
00000050: 7725 23bd 1353 71be c28d 743d 2359 e4be
00000060: 3db5 0c3e 590e f13c 99f2 153e a259 26be
00000070: 6163 ee3d 81f7 c6bd 1893 45be 0ec7 6d3e
00000080: 3e66 8b3e fc47 163e 0946 e7bd 645e 983e
00000090: ddc1 95be 3df3 3cbe cab6 9ebc 2878 b4be
000000a0: 4b0a 70be f5d8 ffbe 7f52 f0be ea67 8c3c
000000b0: a829 2ebe 3bdd 533e 89ff e4be a7ab c63d
000000c0: 1aa9 0cbe 9da7 15bf 34c7 dfbe d1af 983e
000000d0: 04d6 ab3e 0e93 833e 8dbe 133e 8ae2 a13e
000000e0: 9d55 813e fe31 503e 5cc1 5abe 37e8 94be
000000f0: e4df f3bc dd8d 9ebe 483a e1bd 36f5 853e
00000100: 47b5 ddbe 5007 673e 1e7d 8e3e 6617 babc
00000110: 2d59 bdbe e78c c9be 60ee 5ebe 2075 afbe
00000120: 489f b63e 67d6 b6be e0a9 923d acbb e2be
00000130: c368 b9be cea3 133e 7c75 983e 2cea 82be
00000140: 9120 823d 91c0 8c3e a29a 0b3e d7d3 f6bd
00000150: b518 643e af71 b4be 26d9 d9bd f29c d3be
00000160: b74d cebb a28b d3be 876d 623e f1d9 1fbe
00000170: c8b9 a5be 26b8 31be 137d 0fbf 5246 043e
00000180: 35ad 45be ba95 a23e 223a 43be 50e7 b13e
00000190: 1419 02be 290c 9dbd e383 41be 2157 49be
000001a0: 1674 46be 6fa4 3fbe a7dd 86bd d6d3 7fbe
000001b0: e7b9 003e 146b 8e3e 8ee0 303d 8753 8fbe
000001c0: 5e69 073e edd7 1dbf c59e e23d 2242 173c
000001d0: 796e cbbe ee33 34bd d76c 59be 62ac 14be
000001e0: 6aa5 403e 5c0f b53e d961 80bc aaf4 b0bc
000001f0: 49ac 1ebe 437e c1bc bb5c eabe 742e 7d3d
00000200: 438e c9bd f97c 853e c149 d1be 58f2 f8be
00000210: 3bee b5be 66de adbe d0d7 9ebc 6b4e 0fbe
00000220: 9699 77be 2c03 33be 9ffd 06bd aec3 6b3e
00000230: 0ca0 10be 8155 773d 375d a83e c1df fdbe
00000240: eb43 a13c d33a e4bd d618 a1bd 02b5 bfbe
00000250: 7611 7b3e 9254 c7be b32a 8b3e 70a7 ce3d
00000260: dca5 c03d cc6f 02bf 16d8 d0be 75e1 d03d
00000270: 6fc8 84bd e7b3 72be ca27 64be 20bf 973e
00000280: 78dd 133e 2fe0 823b 58bb 49be a714 65bd
00000290: afec ba3e dfaa 2b3e 90fc 1bbe ffac adbe
000002a0: 514e 94be 736d a13d 0f9f a7bb d104 dbbe
000002b0: b1a9 aa3e 1450 803e b6f7 85be 4890 bc3e
000002c0: 83d5 f0be afee 9e3e 63d9 4fbe 2cc6 47be
000002d0: 1da0 b3be b344 eb3d baa8 19be e0c8 583e
000002e0: c917 29bc 97f2 95be 88b6 57be 1612 fdbe
000002f0: bb25 32bb 8fb1 663e d249 c5be f8f3 5cbe
00000300: 48cf 05be edaa a9be 5640 793e f88d dbbd
00000310: 4a47 0cbe 73de f73d 1bd1 86bd 16b2 123e
00000320: 258b acbe 354c 1cbe ac48 d63d 7413 cfbc
00000330: 5e6a 503d 8b3a f4bd ad23 2b3e 6b63 3a3d
00000340: 7d08 973b 8a82 a7be 9b65 85be 7f84 84be
00000350: aa60 26bd d46a 023e 2ad0 963e dde0 05be
00000360: a1dd 5e3e 9ee5 263c c471 7abe 3a15 e53d
00000370: 0eeb 153e 3d07 9e3d de2d 9e3c 5e90 d7bd
00000380: cd85 3c3e 4684 fbbd 8099 9e3d fc13 7f3d
00000390: e839 7ebe e795 cebe 0e1e 80be 7df0 cebe
000003a0: 047a 7cbe be3a 873e 7038 96be 88ff a1be
000003b0: a775 893d be59 963e 3a32 e1be 32da c9bd
000003c0: 41f1 523e 6b54 03be a1e8 4dbe 568b 75be
000003d0: e0c1 7d3d 7c0a 81be 801c 36be 265f a6be
000003e0: a63b 0dbe e8d2 b9be 8090 773e bed6 a2be
000003f0: bbb6 6e3e ba34 4e3d e4c5 a73c 2a77 823e
0.33455908 0.10675674 -0.09906042 -0.13265677 -0.37295136 -0.1856254 -0.16024235 -0.17544453
0.23961623 0.022288961 0.05722275 -0.12915993 0.3019561 -0.4777887 -0.3456625 -0.16239132
-0.21594115 -0.43091133 -0.39319107 -0.37917104 -0.03983065 -0.23566847 0.059705503 -0.44599256
0.13741012 0.029425787 0.14643325 -0.1624513 0.11640049 -0.097151764 -0.19294393 0.23220465
0.27226442 0.14675897 -0.11292655 0.29759514 -0.29249468 -0.18452163 -0.01937427 -0.35247922
-0.23441426 -0.49970213 -0.4693794 0.017139394 -0.17008078 0.20689861 -0.44726208 0.09700709
-0.13736382 -0.5845888 -0.43706667 0.29821637 0.33561718 0.2569813 0.14428158 0.31618148
0.2526063 0.2033157 -0.21362823 -0.29083416 -0.029769845 -0.30967608 -0.109974444 0.26163644
-0.43302366 0.22561383 0.27829832 -0.022716235 -0.36982098 -0.39365312 -0.2177062 -0.34269047
0.35668397 -0.3571045 0.07161307 -0.44283807 -0.3621274 0.14417955 0.29777133 -0.25569284
0.06353868 0.27490667 0.13633206 -0.12052124 0.2227505 -0.35242984 -0.10637121 -0.41330677
-0.0062958854 -0.4131747 0.22112094 -0.15610482 -0.32368302 -0.17355403 -0.56050223 0.1291745
-0.19304354 0.31754857 -0.19065145 0.3474679 -0.12704879 -0.07668335 -0.18897967 -0.19662143
-0.19380221 -0.1871507 -0.065852456 -0.24983153 0.12570916 0.2781607 0.043182902 -0.27993414
0.13223788 -0.616576 0.11065439 0.009232076 -0.3973272 -0.043994837 -0.21232925 -0.14518884
0.188131 0.3536328 -0.015671657 -0.02160104 -0.15495409 -0.023619777 -0.45773873 0.06181188
-0.098415874 0.2607191 -0.40876582 -0.48622394 -0.35533318 -0.3395874 -0.019390017 -0.13994758
-0.24179682 -0.17481679 -0.032956716 0.23023865 -0.14123553 0.060384277 0.32883617 -0.49584773
0.019685706 -0.11144032 -0.07866065 -0.37442786 0.2451838 -0.3893171 0.27181014 0.1009053
0.09406635 -0.5095184 -0.4078986 0.101992525 -0.06483542 -0.2370144 -0.22280803 0.29638004
0.14439952 0.00399401 -0.19700372 -0.0559279 0.365087 0.16764401 -0.15233064 -0.33921048
-0.28966 0.07882204 -0.005115397 -0.42777112 0.3333259 0.25061095 -0.2616555 0.36828828
-0.47037897 0.31041476 -0.2029777 -0.1950919 -0.35083094 0.11487713 -0.1500577 0.21170378
-0.010320612 -0.29286644 -0.21065724 -0.4942786 -0.0027183134 0.2252867 -0.38532883 -0.21577442
-0.13067353 -0.3313822 0.24340948 -0.10720438 -0.1369907 0.12102976 -0.065828525 0.14325747
-0.3369991 -0.15263446 0.1046308 -0.02527783 0.05088269 -0.11925229 0.16712828 0.04550497
0.004609166 -0.3271678 -0.2605408 -0.25882336 -0.04061953 0.12736064 0.29455692 -0.1307406
0.21764232 0.010186581 -0.2445746 0.11185689 0.14640447 0.07716224 0.01930898 -0.10525583
0.18410416 -0.122810885 0.077441216 0.062274918 -0.24826777 -0.4034874 -0.2502293 -0.40417853
-0.2465592 0.26412004 -0.29339933 -0.31640267 0.067118935 0.29365343 -0.43983632 -0.098560706
0.20599844 -0.12825172 -0.20108272 -0.23978934 0.06195247 -0.2520331 -0.1778431 -0.32494467
-0.13792285 -0.3629372 0.24176216 -0.3180446 0.23311894 0.050343253 0.020480104 0.2548154

arith.constant1 f4 [64, 128]
00000000: 9cb9 26be beff e1bd 84bf 0a3e cd17 59be
00000010: 6bd0 4dbe 6ce8 7fbe 01b2 183e 1444 953d
00000020: 49e2 9cbe 3c43 053e c7be 043e 95a4 13bd
00000030: c7e6 0ebd bb7b 36be b11e 993e 59a5 3dbd
00000040: b8e1 823e d102 16be 0a1e e7bd 13cd 81be
00000050: 849d 1f3c 4fad 13be 232e 333e 094a 2e3e
00000060: d375 fb3d 75ae 69bc 88a0 5ebe f658 413e
00000070: ed22 bd3d 17fa 96bd dd7c 143e 8840 81bd
00000080: d074 ef3b ffaa 423e 2a33 73bd b99f 383e
00000090: 104a e43c 1267 ea3d 06e6 45be 3f93 6cbe
000000a0: 900f 05be b60f 6ebc 805a 8dbe 584b 83be
000000b0: 54c4 fbbd 637c 81be dda1 903e 35a0 fe3d
000000c0: 62ed 803d c15c dc3d 19d4 fd3d a198 1ebe
000000d0: 8b16 0c3e 2bec 343c 4170 1c3e e300 213e
000000e0: 8379 1a3e 991d a53e 9338 19bc 6a50 1c3e
000000f0: 7b7e c1bd 2d60 683e 0d26 603c aed1 e33d
00000100: 76dc 1b3b 3582 84bc 8586 d53d 8910 12be
00000110: e2fe fabd b210 b63e 7d18 a83d 61f4 b73d
00000120: 5ffc 1fbe 459f 6f3e e936 0e3e e46a 8d3e
00000130: 5620 c2bd 740e 38be 225c d73d f0c7 1e3e
00000140: f8e3 a63c 4e84 d73d f7b5 2a3e 9406 91be
00000150: d932 db3d 4724 a0bd 7fdd 07be dada 153e
00000160: 6d37 1b3e 5181 243d e70f 923c f2fa 01be
00000170: f231 453e 93fe 413e 7667 cbbd f778 563e
00000180: 56a5 4abe 0d4b 4b3d 307f 923e e959 543c
00000190: f994 95bc e9a5 8b3e 4fab 6c3e dd0c a53d
000001a0: aad5 60bd 298f 47be a084 9e3d 32ed 9a3e
000001b0: 294d 59bc 1371 813d 7f35 353c 45a4 023e
000001c0: 8d3f a33d 6a5e 213e 3459 1f3e a295 613e
000001d0: f381 25bd 78c7 693d 245e 063e 08d4 1abe
000001e0: eec9 293e 87c1 ac3d c5e0 2c3e 3813 733e
000001f0: 505a 30be ab03 fabd 381f 9f3a 40cb 873d
00000200: fe1c 503d 636f 5c3c 213b ab3e d0de 82bb
00000210: 6abe 9fbd b685 8a3e 37f5 883b 7f15 383e
00000220: d188 c1bd 7e98 05bc 322f 403d f17e 0ebe
00000230: f4fe aebe 01dc a2bc ffa2 1d3e 3d99 5c3d
00000240: 07c7 b0b9 6508 2f3e be27 4cbe c86d 423b
00000250: df2d b13d d724 853e 544b 083d 5193 d2bd
00000260: 2060 823e 48d5 7ebe 56ab 5a3d 18ba d63d
00000270: ca8b 43be 4e5c 8dbc 49f6 1ebe 0e77 923e
00000280: bf5b 15bc 55be a7bb a388 0bbe 87f6 babd
00000290: 90cd 953e fc32 94bb 9aa5 003e 20cf 9a3d
000002a0: bf62 083d 411b fbbb 25df dbbd 0667 e7bc
000002b0: 676b 153d 1216 0cbe 8a23 9d3d 9bab 5bbe
000002c0: c62b 37bd 182c d1bd e835 713e 33aa 9f3e
000002d0: eae3 163d 0fe6 e63d 0f59 98bd ccc8 85bd
000002e0: bb59 043e 4b13 f83c 1c31 b6bd 0f95 433e
000002f0: d45d 483e 0dbc b93d 730a 213e a47c acbc
00000300: 3c12 27be ab36 cabd 27ca 5f3e d854 2f3c
00000310: 2985 dd37 3a03 4d3e d20d d3bc 5c10 0f3e
00000320: d0cd 9dbd 4374 87bd 25a0 ca3d 90dc 323d
00000330: 2dc2 803c cc37 253e 4ca0 e63d 8929 c0bd
00000340: 17ea 93be e272 0a3d 160b b53d 4333 943e
00000350: afa9 a1bd b4f9 bebd 8f5d 2bbe 786c 373e
00000360: 8826 f5bd 7496 d03c f893 3d3d f5b8 aa3e
00000370: 8189 843e 6146 893d fa0c 3fbc 1e66 143e
00000380: 503c 1dbe c500 4d3e 5199 573d 90f7 323e
00000390: 69ce 113d 6dea c93b 94f0 9e3b dd39 b5bb
000003a0: 3875 6e3e 1980 543e c9bf ef3d 4cce 2b3e
000003b0: 2ff4 5cbe 274c 283e 84df 7fbe a261 153e
000003c0: 6f9e f23d cdc6 863e 6274 b33d e365 11be
000003d0: 6284 3b3e cae7 a23e 42b7 033e be08 563e
000003e0: 1cdf bb3d e032 2abd 23e5 2b3e 5dcd 74bd
000003f0: 1f1d b13d d91e fdbc b9bf 0a3e e43e e9bc
-0.16281742 -0.11035107 0.1354962 -0.21200486 -0.20099036 -0.24991006 0.14911653 0.072883755
-0.30641392 0.13013929 0.12963401 -0.03604563 -0.034888055 -0.17820637 0.29906228 -0.046300266
0.25562835 -0.14649512 -0.11285026 -0.25351772 0.0097421445 -0.1442158 0.17498069 0.1702043
0.122783326 -0.014262785 -0.21740925 0.18881592 0.09235177 -0.073719196 0.14500757 -0.063111365
0.0073076263 0.19010542 -0.059374966 0.1802968 0.027867347 0.1144544 -0.19326028 -0.23103045
-0.12994218 -0.014530113 -0.2760811 -0.2564342 -0.12293306 -0.25290212 0.28248492 0.12432901
0.06295277 0.10759879 0.1239397 -0.15487911 0.13680474 0.011042635 0.15277196 0.15722995
0.15085416 0.32249144 -0.009351867 0.1526505 -0.09447952 0.22692938 0.013680947 0.111239776
0.0023782528 -0.016175369 0.10426048 -0.1426412 -0.12255646 0.35559613 0.08207796 0.089821585
-0.15623616 0.234006 0.13888134 0.27620614 -0.09478824 -0.17974263 0.1051562 0.15505958
0.020372376 0.10523282 0.16670977 -0.2832533 0.10703058 -0.07819419 -0.13268088 0.14634266
0.15157862 0.04016239 0.017829848 -0.12693384 0.19257334 0.18944769 -0.09931843 0.20944582
-0.19789633 0.04963212 0.2861266 0.012960889 -0.018259512 0.27275017 0.23112224 0.08059094
-0.054891266 -0.19488205 0.0774014 0.3025909 -0.013263025 0.06320395 0.011060118 0.12757976
0.07971106 0.15758672 0.15561372 0.22029737 -0.040407132 0.057074994 0.1312185 -0.15119946
0.16580936 0.0843535 0.16882618 0.237378 -0.17221951 -0.12207731 0.0012140041 0.06630564
0.0508089 0.013454291 0.3344355 -0.0039938465 -0.077999905 0.27055138 0.0041796225 0.1797695
-0.09449924 -0.008154033 0.04692001 -0.13915612 -0.3417889 -0.019880297 0.1539421 0.053857077
-0.00033717623 0.17093046 -0.19937035 0.0029667486 0.08651327 0.2600467 0.033274963 -0.102820046
0.25463963 -0.24886048 0.053386055 0.10484713 -0.19096294 -0.017255928 -0.15523638 0.28606457
-0.009116112 -0.005119125 -0.13626342 -0.091290526 0.29258394 -0.0045226794 0.12563172 0.07559037
0.033297297 -0.007663161 -0.10735921 -0.028247368 0.03647938 -0.13680294 0.07672794 -0.21452181
-0.04471948 -0.10213488 0.2355572 0.3118454 0.03683845 0.11274349 -0.074388616 -0.065324396
0.12924854 0.030282637 -0.088960856 0.1909983 0.19567043 0.09069071 0.15726642 -0.021055527
-0.1631555 -0.09873708 0.21854459 0.010701381 2.640726e-05 0.20020762 -0.025763426 0.13971084
-0.07705271 -0.06613972 0.098938264 0.043667376 0.01571759 0.16134566 0.11261043 -0.09382922
-0.28889534 0.033800967 0.08840005 0.2894536 -0.07893693 -0.09324971 -0.16734909 0.17912471
-0.1197024 0.025462367 0.046283692 0.33344236 0.25886157 0.06702877 -0.011660809 0.1449208
-0.15355039 0.20019825 0.05263645 0.1747725 0.03559724 0.006161979 0.0048504565 -0.0055305795
0.23286903 0.2075199 0.11706502 0.16777915 -0.21577524 0.164353 -0.24987608 0.14588025
0.11846625 0.26323548 0.08762433 -0.14199023 0.18312219 0.31817466 0.12862876 0.20901772
0.09173414 -0.041552424 0.16786627 -0.059766162 0.086481325 -0.030898498 0.13549699 -0.028472371

arith.constant2 f4 [41]
00000000: ce55 983c 5dda d93c 0f43 8d3d 21c3 20bd
00000010: 526c cfb8 bd34 ad3b c927 a4bc 51a3 473d
00000020: a74d 423b 24ae bc3b 115f 6f3c 0b85 87bc
00000030: 6a96 80bb f40c 93bb 859d a73c 02cf 2e3d
00000040: 5493 fa3a 3c8b f23c 7b9e 593d 9796 48bc
00000050: 3566 60bb f446 903c 916c 73bd 4da1 0e3d
00000060: 4c9a 023c f1d2 2dbd c862 9abc 98ec 44bd
00000070: 3329 a3bb b4be 3f3c 1348 40bd 02d1 a83b
00000080: e9e2 f33c eea1 313c 5091 c2bc 148e 2dbd
00000090: 6021 69bd 1b87 9ebd bf56 8b3b 9f5f 9c3c
000000a0: 3cc9 8bbd
0.018595602 0.026593382 0.06897556 -0.03924859 -9.8907054e-05 0.005285828 -0.020038502 0.048739735
0.0029648335 0.005758064 0.014610068 -0.016542932 -0.0039241808 -0.004487628 0.020460853 0.042677887
0.0019117394 0.029607408 0.053129654 -0.012242935 -0.0034240608 0.017611958 -0.05942971 0.034821797
0.007971358 -0.042437498 -0.01884593 -0.048077196 -0.0049792766 0.011703182 -0.046943735 0.005151869
0.029771285 0.01084183 -0.023750931 -0.042371824 -0.056916595 -0.07740613 0.0042522843 0.019088564
-0.06825492

sequential_1/dense_1_2/BiasAdd/ReadVariableOp f4 [64]
00000000: ace1 8a3d df3a 833d cc76 d63c aab2 853d
00000010: 7c7a a13c 7042 1fbc f997 b53c 4967 96ba
00000020: 21b7 903d 3859 0d3d 15d4 173d 600d 573c
00000030: d3f3 873d 46cb 833d 3d90 8a3d 7b23 fa3c
00000040: e63f bb3d 731f 783d 4802 123d 53fb 1b3c
00000050: 3488 933d e722 363d 26e0 c23d e541 a93c
00000060: c0d7 a23d 906b 0d3d c0a3 263d e1ce 213d
00000070: 2809 263d 389b 41bc ae2c 443d 657c 433d
00000080: 1f55 e73c 779a 363d 19c1 da3b 8378 fa3c
00000090: 20d0 973d ab16 823d d544 133d aea4 863c
000000a0: 259c 683d c9a4 fc3c e06a 943d 4d97 683d
000000b0: 40c1 8d3d 9b2b 663d 5049 633d 874b 9a3d
000000c0: c063 733d 4aec 0b3e 990b 033d 6516 0fbd
000000d0: fa52 f43c 610f 8a3d 2759 b4bc bb69 b83d
000000e0: f78c 083d 6075 fa3c dfca 063d 2458 1a3d
000000f0: f6c8 823d 702d 813d 03f0 013d 842d 5c3c
0.06781325 0.06407713 0.026179694 0.06528218 0.019711725 -0.00972043 0.022167193 -0.0011474873
0.07066179 0.034508914 0.03706749 0.013125747 0.06638303 0.06435256 0.067657925 0.030534497
0.09143047 0.060576867 0.035646707 0.00952037 0.07203713 0.04446688 0.09515409 0.020661304
0.07951307 0.034526408 0.040683508 0.039503936 0.040536076 -0.011816792 0.047894172 0.047726054
0.028238831 0.044580903 0.006675851 0.030575043 0.074127436 0.0635198 0.035954315 0.016435947
0.056789536 0.030840294 0.07246947 0.056784917 0.06921625 0.05619393 0.055489838 0.07533937
0.0594213 0.13664356 0.031993482 -0.034933466 0.029824723 0.067412145 -0.022015167 0.090045415
0.03333756 0.030573547 0.032908317 0.037681714 0.063859865 0.06307495 0.031723034 0.013438586

sequential_1/dense_1/BiasAdd/ReadVariableOp f4 [128]
00000000: b89d 193e 35c3 223e 5e84 463e 0d51 263e
00000010: 3a4e f53d df5a 253e 82b7 243e 5a48 113e
00000020: 612d 1b3e 11f7 1e3e 91f4 1f3e 4033 2d3e
00000030: 3e04 483e d1df 183e 33a7 3f3e 54a4 053e
00000040: d9d6 283e 14e4 0e3e 1fed 1e3e 1b07 173e
00000050: 6e19 2c3e 42fc f03d 277e 1b3e a093 243e
00000060: f06d e53d d157 2c3e e399 253e 3e0c 253e
00000070: f993 0e3e 9f42 353e df0c 1a3e d73a 1d3e
00000080: 95e6 053e 3ac7 a13d 5c1b 1c3e dfd3 0f3e
00000090: 4c07 f83d 5ea6 da3d 79f7 0e3e f247 283e
000000a0: 7350 0c3e 2483 b13d 4f6d 0f3e 001c b23d
000000b0: 4c00 333e 6625 283e 4ec2 243e 7053 183e
000000c0: 06c1 173e d639 023e 9415 373e dfe1 233e
000000d0: 69c5 053e 1f71 fe3d a9cf 0e3e 212e ef3d
000000e0: 5b61 c03d 33e6 4d3e 80e6 083e 3f1b e33d
000000f0: 84a1 133e 454b 3d3e 74f9 303e 0776 1e3e
00000100: 92a9 123e 3c41 2e3e 1b9f 063e cd27 e43d
00000110: da90 013e 4702 4a3e c81a 1c3e d57e 3f3e
00000120: 9e0e 0a3e 4481 173e 16b6 343e b569 083e
00000130: ef12 0c3e fede 043e 9e76 c93d a23e 393e
00000140: 9f41 1c3e 93de 233e a39a 103e 0ec2 243e
00000150: 4fdc 333e fb15 d13d 095b 083e bb32 273e
00000160: 7724 bd3d 5470 183e f068 4b3e f491 303e
00000170: f30f 333e 636f 053e 6a39 e93d f7aa 1d3e
00000180: 5265 fe3d 8c19 393e 8f9e 3c3e 70fd 233e
00000190: a5f5 2e3e c3cd 3a3e 8234 3e3e 325b 263e
000001a0: 2633 253e 60b1 e83d 2b80 263e 0c1b 2a3e
000001b0: edc4 2a3e c70d 043e 0cb8 1c3e cc43 053e
000001c0: a630 153e d988 fd3d a36b 0d3e ff24 4b3e
000001d0: 6129 0e3e 1ba5 1f3e 8e87 063e f7f3 193e
000001e0: d7b8 223e dfe3 573e 33a8 ed3d c647 3b3e
000001f0: 622b 183e b3f0 be3d a97d 9e3d b799 113e
0.15001571 0.15894778 0.19386432 0.16241856 0.11977811 0.16147946 0.16085628 0.14187756
0.1515403 0.15523936 0.15620638 0.16914082 0.19532868 0.14929129 0.18716125 0.13050967
0.16488208 0.13954192 0.15520142 0.14748804 0.16806576 0.11766864 0.15184842 0.1607194
0.112026095 0.16830374 0.16171984 0.16117951 0.13923635 0.17701195 0.15043972 0.15354477
0.13076241 0.078993276 0.15244812 0.14045666 0.12110767 0.10676263 0.13961591 0.16433695
0.13702564 0.08667591 0.14006542 0.08696747 0.17480582 0.16420516 0.16089746 0.14875579
0.14819726 0.12717375 0.17879325 0.16004132 0.13063587 0.1242392 0.13946404 0.1167872
0.09393569 0.20107345 0.13369179 0.11089181 0.14417082 0.18485744 0.17282659 0.15474711
0.14322498 0.17017072 0.13146631 0.11140404 0.12652913 0.19727431 0.15244591 0.18700726
0.13482139 0.14795405 0.17647585 0.13321574 0.13679098 0.1297569 0.098370776 0.18090299
0.15259407 0.16002874 0.14121489 0.16089651 0.1756451 0.102092706 0.13315977 0.16327946
0.09235471 0.148866 0.19864249 0.17243177 0.17486553 0.13030772 0.11387904 0.15397249
0.12421669 0.18076152 0.1841986 0.16014647 0.17085893 0.18242554 0.18574718 0.16245726
0.16132793 0.113619566 0.1625983 0.1661188 0.16676684 0.1289588 0.15304583 0.13014144
0.14569339 0.12379617 0.13810591 0.19838332 0.13882972 0.15590326 0.13137648 0.15034471
0.15890823 0.2108302 0.11604347 0.18289098 0.14860299 0.093232535 0.077388115 0.14218794

sequential_1/dense_1/MatMul f4 [128, 132]
00000000: e886 66be d385 e53d 241f b13b a295 5cbe
00000010: 8482 e2b9 e581 b33d d5f2 a6bd e5f3 7c3d
00000020: fac5 0f3e 05b5 153e ca51 c2bd bbb1 483e
00000030: 9193 763d ad47 43be 2076 33bd 825f 9b3d
00000040: e51c 7d3b 95e1 233d 38a0 2abc f03e 9fba
00000050: bbb8 c03d 3f56 2bbc d53d c2bd be7b 453e
00000060: cc45 943d a487 c33b d060 4ebd 3677 35be
00000070: 150b c73c 9d3a 8dbd c415 8a3e d0ef 8e3e
00000080: 15d1 20be 563c 04be a4d9 c63d 87b7 303e
00000090: 9688 d23c ca13 c13d f6b8 1ebc 4f53 493e
000000a0: 2e24 debd 48a1 a53c a39f 8b3c 06b9 3abd
000000b0: a62d 383e 001d 1c3c f4ce 35bd 62da 22be
000000c0: 3ebb 463d 9549 c73d 9cd2 573e cc87 aebc
000000d0: ec7e 793d 39c8 883d 4804 b33d a308 193e
000000e0: db0a 433e d72a 44be 9956 ed3b 2267 12be
000000f0: 6ee1 78bd e712 44bd 8fd9 02bd 4970 82be
00000100: fb29 53bd fbc2 e6bc 0e9d b43d f07d 94bd
00000110: 3d28 6fbd 389a eabd bec2 1b3e 2de4 46bd
00000120: 2649 6abd 1018 9d3d e9d6 d83d c15c 7abd
00000130: ff90 a83b 5c22 a53a 9d2d 55be 77ad 1d3d
00000140: e455 4dbe 3744 033e 0802 d1bc 741a b33d
00000150: f076 ac3a e70a 693e 7b0c f13d 3ccb 9c3e
00000160: 7034 653d 6013 f13c 9d5f eb39 d4a2 753e
00000170: 8e91 443e 0cba e03d 5ebc 353d e017 243e
00000180: 6e11 433e 38d0 1cbd ff99 113e 1e88 ed3b
00000190: 29eb abbd 1645 073e c455 0bbe 79e2 773b
000001a0: 2e7c b93d e6e1 6ebd 1be1 eabc 36a9 0cbd
000001b0: 061a 863c 2385 dabd 4359 3e3e f5f4 3a3c
000001c0: 781b 603d 36e5 233d 0071 cf3d 971a 1abe
000001d0: 76ef 95bc 5624 25be b2e4 683e 65f5 db3b
000001e0: 26fc 46bd e20a 113e e69e 143e a1e1 943e
000001f0: dabe 7d3e 0d50 723e 8835 193e 4f21 6f3e
00000200: 796b 363e 2f6c 1b3e e06b b2bd ca62 853d
00000210: a7f9 2cbe 4da2 663e 1884 5cbe 20c7 893d
00000220: 15f7 8bbd 9972 9cbd 1f7c bd3d 2f4f 30be
00000230: 24c9 c13d ec41 ca3d d06e 5ebb aaf3 34be
00000240: 77a1 1e3e 87d4 11be 44ad b2bd 65ca d83c
00000250: 70c0 683c 3973 2d3e 1908 063e 7459 cebb
00000260: a34e 6e3d 1e77 2b3d 5ee3 463e 4c51 1e3e
00000270: 8af1 48bb 05ad 703e 2517 bf3d d0ea 08bd
00000280: f7d9 773b e75d a73d cd51 353d 86f3 a1bd
00000290: 6472 cdbb bc33 91bd 9480 06bd 20cc 49bd
000002a0: fe1c 2d3c 1b63 4a3e 66cb 54be ca63 a9bc
000002b0: 4c8d 1dbe 9ced 5a3e 73a9 c8bd 78f5 273d
000002c0: 58c2 9fbb 8479 cf3d d5e7 08be 948f 6d3e
000002d0: 6330 54bd 8c51 6abd 7af7 933d 5e92 af3e
000002e0: c6e9 ac3e 347f ae3e e4e8 f33e a6c2 a73e
000002f0: 9f4b 28bd 3969 663e 7634 3ebe cc6c 493c
00000300: 8aad 1a3d f645 063c 7f8b 19bc c5b1 213e
00000310: 355d 463d 2b05 183a 88d6 b5bd ce87 3bbe
00000320: c86a 033d 30bd 3d3d 5070 493e 8abb a83c
00000330: 444d 253d 26b0 473e 4531 0a3e 3df8 563e
00000340: c440 e5bd 005a 383a 5c7b 53bd 019c 1f3d
00000350: 79a3 5bbd 0719 19bd 5889 b9bd 8027 0dbd
00000360: 8bba 00be f74d f8bc d6e1 de3d 9695 16be
00000370: eea2 f53e 12ee 8c3e f8de 3e3d 0113 503e
00000380: 370d 653f f9ce 623f 7474 183d 773b 943d
00000390: 3a93 3fbd 41aa 1bbe cdd5 19be d54b 843d
000003a0: 7ad4 f8bd 1c6a bdbd 988e 5cbe e033 3b3b
000003b0: 4279 433e ea3a 8b3d 4f1e dc3d 6c20 8cbd
000003c0: 0af5 69bd 400b 873d d470 11be 1629 193e
000003d0: 36d2 38bd aa38 26be d922 14bd b81d 7d3d
000003e0: fcab 183d 46cb bb3d f6f9 613e 9089 3a3d
000003f0: e4e9 5dbd 41cb 18be 54da 893e 2ee2 873e
-0.225124 0.112071656 0.0054053236 -0.21541455 -0.0004320332 0.0876501 -0.08151785 0.061756033
0.14040366 0.14619835 -0.09488256 0.19599049 0.060199324 -0.19070311 -0.043813825 0.07586576
0.0038621959 0.040010054 -0.010414176 -0.0012149494 0.094102345 -0.010457574 -0.0948445 0.19285485
0.07239875 0.0059670974 -0.050385296 -0.17721257 0.024297277 -0.06895945 0.2696973 0.27917337
-0.15704758 -0.12913641 0.097094804 0.1725751 0.025699895 0.094276026 -0.009687653 0.19660686
-0.108467445 0.020218506 0.017043894 -0.04558661 0.17986163 0.0095283985 -0.04438682 -0.15903619
0.04851841 0.097308315 0.21076435 -0.021304987 0.060912058 0.066788144 0.08741051 0.14944701
0.1904711 -0.19156967 0.0072429893 -0.14297155 -0.06076186 -0.04786959 -0.03194576 -0.25476292
-0.051553708 -0.028169146 0.08819018 -0.07250583 -0.058387984 -0.11455196 0.15211007 -0.04855745
-0.057198666 0.07670605 0.10587866 -0.061123613 0.005144238 0.0012598741 -0.20818181 0.038495507
-0.20052296 0.1281899 -0.025513664 0.0874528 0.0013158005 0.22758065 0.117699586 0.30623806
0.05595821 0.029428184 0.0004489393 0.23987895 0.1919615 0.109729856 0.044369094 0.16024733
0.19049618 -0.03828451 0.14218901 0.0072488924 -0.083944626 0.13209948 -0.13606936 0.0037824197
0.090568885 -0.058320902 -0.028671792 -0.03434106 0.01636983 -0.10669925 0.18588738 0.011410941
0.054713696 0.040013514 0.10128975 -0.15049206 -0.01830266 -0.16127142 0.2274349 0.006712603
-0.04858031 0.14164308 0.1451374 0.2907839 0.24779835 0.2366335 0.14961827 0.2335255
0.17814435 0.15177988 -0.08711982 0.06512983 -0.1689211 0.2252285 -0.21534765 0.06727433
-0.068342365 -0.07639045 0.0925219 -0.17217706 0.09462193 0.09875855 -0.003394056 -0.17671075
0.15491281 -0.14241229 -0.08724454 0.026463697 0.014206037 0.16938485 0.13089027 -0.0062972847
0.058180463 0.041861646 0.19422671 0.154607 -0.0030661547 0.23503502 0.09330586 -0.03342706
0.0037819126 0.08172207 0.044267464 -0.079077765 -0.00626974 -0.07089946 -0.032837465 -0.049266934
0.010565994 0.19764368 -0.20780715 -0.020677466 -0.15385932 0.21379703 -0.09797945 0.04100558
-0.0048754625 0.10130599 -0.13369687 0.23199302 -0.051803958 -0.057206675 0.07224937 0.34291357
0.33772105 0.34081423 0.4763862 0.32765692 -0.041087743 0.22501077 -0.185747 0.012294006
0.037763156 0.008195391 -0.009371637 0.1579047 0.048428733 0.000579911 -0.08878809 -0.18313524
0.032084256 0.046323 0.1967175 0.020597238 0.04035689 0.19500789 0.13495357 0.20993133
-0.11193994 0.0007032454 -0.051631317 0.038967136 -0.053622697 -0.037377384 -0.09059399 -0.0344615
-0.1257116 -0.030310614 0.108829185 -0.147055 0.47975868 0.27525383 0.04659936 0.2031975
0.8947329 0.88597065 0.037220433 0.072379045 -0.046771266 -0.15201665 -0.15022965 0.06459776
-0.12149902 -0.092487544 -0.2153877 0.0028564855 0.19089225 0.06798346 0.107479684 -0.068421215
-0.057118453 0.06593943 -0.14203197 0.1495708 -0.045122348 -0.16232553 -0.036166046 0.06179592
0.037273392 0.09169631 0.22068009 0.045541346 -0.054178134 -0.14921285 0.26924384 0.2653975
